layer     filters    size              input                output
    0 conv     32  3 x 3 / 1   224 x 224 x   3   ->   224 x 224 x  32  0.087 BFLOPs
    1 conv     64  3 x 3 / 2   224 x 224 x  32   ->   112 x 112 x  64  0.462 BFLOPs
    2 conv     32  1 x 1 / 1   112 x 112 x  64   ->   112 x 112 x  32  0.051 BFLOPs
    3 conv     64  3 x 3 / 1   112 x 112 x  32   ->   112 x 112 x  64  0.462 BFLOPs
    4 res    1                 112 x 112 x  64   ->   112 x 112 x  64
    5 conv    128  3 x 3 / 2   112 x 112 x  64   ->    56 x  56 x 128  0.462 BFLOPs
    6 conv     64  1 x 1 / 1    56 x  56 x 128   ->    56 x  56 x  64  0.051 BFLOPs
    7 conv    128  3 x 3 / 1    56 x  56 x  64   ->    56 x  56 x 128  0.462 BFLOPs
    8 res    5                  56 x  56 x 128   ->    56 x  56 x 128
    9 conv     64  1 x 1 / 1    56 x  56 x 128   ->    56 x  56 x  64  0.051 BFLOPs
   10 conv    128  3 x 3 / 1    56 x  56 x  64   ->    56 x  56 x 128  0.462 BFLOPs
   11 res    8                  56 x  56 x 128   ->    56 x  56 x 128
   12 conv    256  3 x 3 / 2    56 x  56 x 128   ->    28 x  28 x 256  0.462 BFLOPs
   13 conv    128  1 x 1 / 1    28 x  28 x 256   ->    28 x  28 x 128  0.051 BFLOPs
   14 conv    256  3 x 3 / 1    28 x  28 x 128   ->    28 x  28 x 256  0.462 BFLOPs
   15 res   12                  28 x  28 x 256   ->    28 x  28 x 256
   16 conv    128  1 x 1 / 1    28 x  28 x 256   ->    28 x  28 x 128  0.051 BFLOPs
   17 conv    256  3 x 3 / 1    28 x  28 x 128   ->    28 x  28 x 256  0.462 BFLOPs
   18 res   15                  28 x  28 x 256   ->    28 x  28 x 256
   19 conv    128  1 x 1 / 1    28 x  28 x 256   ->    28 x  28 x 128  0.051 BFLOPs
   20 conv    256  3 x 3 / 1    28 x  28 x 128   ->    28 x  28 x 256  0.462 BFLOPs
   21 res   18                  28 x  28 x 256   ->    28 x  28 x 256
   22 conv    128  1 x 1 / 1    28 x  28 x 256   ->    28 x  28 x 128  0.051 BFLOPs
   23 conv    256  3 x 3 / 1    28 x  28 x 128   ->    28 x  28 x 256  0.462 BFLOPs
   24 res   21                  28 x  28 x 256   ->    28 x  28 x 256
   25 conv    128  1 x 1 / 1    28 x  28 x 256   ->    28 x  28 x 128  0.051 BFLOPs
   26 conv    256  3 x 3 / 1    28 x  28 x 128   ->    28 x  28 x 256  0.462 BFLOPs
   27 res   24                  28 x  28 x 256   ->    28 x  28 x 256
   28 conv    128  1 x 1 / 1    28 x  28 x 256   ->    28 x  28 x 128  0.051 BFLOPs
   29 conv    256  3 x 3 / 1    28 x  28 x 128   ->    28 x  28 x 256  0.462 BFLOPs
   30 res   27                  28 x  28 x 256   ->    28 x  28 x 256
   31 conv    128  1 x 1 / 1    28 x  28 x 256   ->    28 x  28 x 128  0.051 BFLOPs
   32 conv    256  3 x 3 / 1    28 x  28 x 128   ->    28 x  28 x 256  0.462 BFLOPs
   33 res   30                  28 x  28 x 256   ->    28 x  28 x 256
   34 conv    128  1 x 1 / 1    28 x  28 x 256   ->    28 x  28 x 128  0.051 BFLOPs
   35 conv    256  3 x 3 / 1    28 x  28 x 128   ->    28 x  28 x 256  0.462 BFLOPs
   36 res   33                  28 x  28 x 256   ->    28 x  28 x 256
   37 conv    512  3 x 3 / 2    28 x  28 x 256   ->    14 x  14 x 512  0.462 BFLOPs
   38 conv    256  1 x 1 / 1    14 x  14 x 512   ->    14 x  14 x 256  0.051 BFLOPs
   39 conv    512  3 x 3 / 1    14 x  14 x 256   ->    14 x  14 x 512  0.462 BFLOPs
   40 res   37                  14 x  14 x 512   ->    14 x  14 x 512
   41 conv    256  1 x 1 / 1    14 x  14 x 512   ->    14 x  14 x 256  0.051 BFLOPs
   42 conv    512  3 x 3 / 1    14 x  14 x 256   ->    14 x  14 x 512  0.462 BFLOPs
   43 res   40                  14 x  14 x 512   ->    14 x  14 x 512
   44 conv    256  1 x 1 / 1    14 x  14 x 512   ->    14 x  14 x 256  0.051 BFLOPs
   45 conv    512  3 x 3 / 1    14 x  14 x 256   ->    14 x  14 x 512  0.462 BFLOPs
   46 res   43                  14 x  14 x 512   ->    14 x  14 x 512
   47 conv    256  1 x 1 / 1    14 x  14 x 512   ->    14 x  14 x 256  0.051 BFLOPs
   48 conv    512  3 x 3 / 1    14 x  14 x 256   ->    14 x  14 x 512  0.462 BFLOPs
   49 res   46                  14 x  14 x 512   ->    14 x  14 x 512
   50 conv    256  1 x 1 / 1    14 x  14 x 512   ->    14 x  14 x 256  0.051 BFLOPs
   51 conv    512  3 x 3 / 1    14 x  14 x 256   ->    14 x  14 x 512  0.462 BFLOPs
   52 res   49                  14 x  14 x 512   ->    14 x  14 x 512
   53 conv    256  1 x 1 / 1    14 x  14 x 512   ->    14 x  14 x 256  0.051 BFLOPs
   54 conv    512  3 x 3 / 1    14 x  14 x 256   ->    14 x  14 x 512  0.462 BFLOPs
   55 res   52                  14 x  14 x 512   ->    14 x  14 x 512
   56 conv    256  1 x 1 / 1    14 x  14 x 512   ->    14 x  14 x 256  0.051 BFLOPs
   57 conv    512  3 x 3 / 1    14 x  14 x 256   ->    14 x  14 x 512  0.462 BFLOPs
   58 res   55                  14 x  14 x 512   ->    14 x  14 x 512
   59 conv    256  1 x 1 / 1    14 x  14 x 512   ->    14 x  14 x 256  0.051 BFLOPs
   60 conv    512  3 x 3 / 1    14 x  14 x 256   ->    14 x  14 x 512  0.462 BFLOPs
   61 res   58                  14 x  14 x 512   ->    14 x  14 x 512
   62 conv   1024  3 x 3 / 2    14 x  14 x 512   ->     7 x   7 x1024  0.462 BFLOPs
   63 conv    512  1 x 1 / 1     7 x   7 x1024   ->     7 x   7 x 512  0.051 BFLOPs
   64 conv   1024  3 x 3 / 1     7 x   7 x 512   ->     7 x   7 x1024  0.462 BFLOPs
   65 res   62                   7 x   7 x1024   ->     7 x   7 x1024
   66 conv    512  1 x 1 / 1     7 x   7 x1024   ->     7 x   7 x 512  0.051 BFLOPs
   67 conv   1024  3 x 3 / 1     7 x   7 x 512   ->     7 x   7 x1024  0.462 BFLOPs
   68 res   65                   7 x   7 x1024   ->     7 x   7 x1024
   69 conv    512  1 x 1 / 1     7 x   7 x1024   ->     7 x   7 x 512  0.051 BFLOPs
   70 conv   1024  3 x 3 / 1     7 x   7 x 512   ->     7 x   7 x1024  0.462 BFLOPs
   71 res   68                   7 x   7 x1024   ->     7 x   7 x1024
   72 conv    512  1 x 1 / 1     7 x   7 x1024   ->     7 x   7 x 512  0.051 BFLOPs
   73 conv   1024  3 x 3 / 1     7 x   7 x 512   ->     7 x   7 x1024  0.462 BFLOPs
   74 res   71                   7 x   7 x1024   ->     7 x   7 x1024
   75 avg                        7 x   7 x1024   ->  1024
   76 connected                            1024  ->     2
   77 softmax                                           2
Loading weights from backup/darknet53.backup...darknet53
3
Done!
layer     filters    size              input                output
    0 conv     32  3 x 3 / 1   224 x 224 x   3   ->   224 x 224 x  32  0.087 BFLOPs
    1 conv     64  3 x 3 / 2   224 x 224 x  32   ->   112 x 112 x  64  0.462 BFLOPs
    2 conv     32  1 x 1 / 1   112 x 112 x  64   ->   112 x 112 x  32  0.051 BFLOPs
    3 conv     64  3 x 3 / 1   112 x 112 x  32   ->   112 x 112 x  64  0.462 BFLOPs
    4 res    1                 112 x 112 x  64   ->   112 x 112 x  64
    5 conv    128  3 x 3 / 2   112 x 112 x  64   ->    56 x  56 x 128  0.462 BFLOPs
    6 conv     64  1 x 1 / 1    56 x  56 x 128   ->    56 x  56 x  64  0.051 BFLOPs
    7 conv    128  3 x 3 / 1    56 x  56 x  64   ->    56 x  56 x 128  0.462 BFLOPs
    8 res    5                  56 x  56 x 128   ->    56 x  56 x 128
    9 conv     64  1 x 1 / 1    56 x  56 x 128   ->    56 x  56 x  64  0.051 BFLOPs
   10 conv    128  3 x 3 / 1    56 x  56 x  64   ->    56 x  56 x 128  0.462 BFLOPs
   11 res    8                  56 x  56 x 128   ->    56 x  56 x 128
   12 conv    256  3 x 3 / 2    56 x  56 x 128   ->    28 x  28 x 256  0.462 BFLOPs
   13 conv    128  1 x 1 / 1    28 x  28 x 256   ->    28 x  28 x 128  0.051 BFLOPs
   14 conv    256  3 x 3 / 1    28 x  28 x 128   ->    28 x  28 x 256  0.462 BFLOPs
   15 res   12                  28 x  28 x 256   ->    28 x  28 x 256
   16 conv    128  1 x 1 / 1    28 x  28 x 256   ->    28 x  28 x 128  0.051 BFLOPs
   17 conv    256  3 x 3 / 1    28 x  28 x 128   ->    28 x  28 x 256  0.462 BFLOPs
   18 res   15                  28 x  28 x 256   ->    28 x  28 x 256
   19 conv    128  1 x 1 / 1    28 x  28 x 256   ->    28 x  28 x 128  0.051 BFLOPs
   20 conv    256  3 x 3 / 1    28 x  28 x 128   ->    28 x  28 x 256  0.462 BFLOPs
   21 res   18                  28 x  28 x 256   ->    28 x  28 x 256
   22 conv    128  1 x 1 / 1    28 x  28 x 256   ->    28 x  28 x 128  0.051 BFLOPs
   23 conv    256  3 x 3 / 1    28 x  28 x 128   ->    28 x  28 x 256  0.462 BFLOPs
   24 res   21                  28 x  28 x 256   ->    28 x  28 x 256
   25 conv    128  1 x 1 / 1    28 x  28 x 256   ->    28 x  28 x 128  0.051 BFLOPs
   26 conv    256  3 x 3 / 1    28 x  28 x 128   ->    28 x  28 x 256  0.462 BFLOPs
   27 res   24                  28 x  28 x 256   ->    28 x  28 x 256
   28 conv    128  1 x 1 / 1    28 x  28 x 256   ->    28 x  28 x 128  0.051 BFLOPs
   29 conv    256  3 x 3 / 1    28 x  28 x 128   ->    28 x  28 x 256  0.462 BFLOPs
   30 res   27                  28 x  28 x 256   ->    28 x  28 x 256
   31 conv    128  1 x 1 / 1    28 x  28 x 256   ->    28 x  28 x 128  0.051 BFLOPs
   32 conv    256  3 x 3 / 1    28 x  28 x 128   ->    28 x  28 x 256  0.462 BFLOPs
   33 res   30                  28 x  28 x 256   ->    28 x  28 x 256
   34 conv    128  1 x 1 / 1    28 x  28 x 256   ->    28 x  28 x 128  0.051 BFLOPs
   35 conv    256  3 x 3 / 1    28 x  28 x 128   ->    28 x  28 x 256  0.462 BFLOPs
   36 res   33                  28 x  28 x 256   ->    28 x  28 x 256
   37 conv    512  3 x 3 / 2    28 x  28 x 256   ->    14 x  14 x 512  0.462 BFLOPs
   38 conv    256  1 x 1 / 1    14 x  14 x 512   ->    14 x  14 x 256  0.051 BFLOPs
   39 conv    512  3 x 3 / 1    14 x  14 x 256   ->    14 x  14 x 512  0.462 BFLOPs
   40 res   37                  14 x  14 x 512   ->    14 x  14 x 512
   41 conv    256  1 x 1 / 1    14 x  14 x 512   ->    14 x  14 x 256  0.051 BFLOPs
   42 conv    512  3 x 3 / 1    14 x  14 x 256   ->    14 x  14 x 512  0.462 BFLOPs
   43 res   40                  14 x  14 x 512   ->    14 x  14 x 512
   44 conv    256  1 x 1 / 1    14 x  14 x 512   ->    14 x  14 x 256  0.051 BFLOPs
   45 conv    512  3 x 3 / 1    14 x  14 x 256   ->    14 x  14 x 512  0.462 BFLOPs
   46 res   43                  14 x  14 x 512   ->    14 x  14 x 512
   47 conv    256  1 x 1 / 1    14 x  14 x 512   ->    14 x  14 x 256  0.051 BFLOPs
   48 conv    512  3 x 3 / 1    14 x  14 x 256   ->    14 x  14 x 512  0.462 BFLOPs
   49 res   46                  14 x  14 x 512   ->    14 x  14 x 512
   50 conv    256  1 x 1 / 1    14 x  14 x 512   ->    14 x  14 x 256  0.051 BFLOPs
   51 conv    512  3 x 3 / 1    14 x  14 x 256   ->    14 x  14 x 512  0.462 BFLOPs
   52 res   49                  14 x  14 x 512   ->    14 x  14 x 512
   53 conv    256  1 x 1 / 1    14 x  14 x 512   ->    14 x  14 x 256  0.051 BFLOPs
   54 conv    512  3 x 3 / 1    14 x  14 x 256   ->    14 x  14 x 512  0.462 BFLOPs
   55 res   52                  14 x  14 x 512   ->    14 x  14 x 512
   56 conv    256  1 x 1 / 1    14 x  14 x 512   ->    14 x  14 x 256  0.051 BFLOPs
   57 conv    512  3 x 3 / 1    14 x  14 x 256   ->    14 x  14 x 512  0.462 BFLOPs
   58 res   55                  14 x  14 x 512   ->    14 x  14 x 512
   59 conv    256  1 x 1 / 1    14 x  14 x 512   ->    14 x  14 x 256  0.051 BFLOPs
   60 conv    512  3 x 3 / 1    14 x  14 x 256   ->    14 x  14 x 512  0.462 BFLOPs
   61 res   58                  14 x  14 x 512   ->    14 x  14 x 512
   62 conv   1024  3 x 3 / 2    14 x  14 x 512   ->     7 x   7 x1024  0.462 BFLOPs
   63 conv    512  1 x 1 / 1     7 x   7 x1024   ->     7 x   7 x 512  0.051 BFLOPs
   64 conv   1024  3 x 3 / 1     7 x   7 x 512   ->     7 x   7 x1024  0.462 BFLOPs
   65 res   62                   7 x   7 x1024   ->     7 x   7 x1024
   66 conv    512  1 x 1 / 1     7 x   7 x1024   ->     7 x   7 x 512  0.051 BFLOPs
   67 conv   1024  3 x 3 / 1     7 x   7 x 512   ->     7 x   7 x1024  0.462 BFLOPs
   68 res   65                   7 x   7 x1024   ->     7 x   7 x1024
   69 conv    512  1 x 1 / 1     7 x   7 x1024   ->     7 x   7 x 512  0.051 BFLOPs
   70 conv   1024  3 x 3 / 1     7 x   7 x 512   ->     7 x   7 x1024  0.462 BFLOPs
   71 res   68                   7 x   7 x1024   ->     7 x   7 x1024
   72 conv    512  1 x 1 / 1     7 x   7 x1024   ->     7 x   7 x 512  0.051 BFLOPs
   73 conv   1024  3 x 3 / 1     7 x   7 x 512   ->     7 x   7 x1024  0.462 BFLOPs
   74 res   71                   7 x   7 x1024   ->     7 x   7 x1024
   75 avg                        7 x   7 x1024   ->  1024
   76 connected                            1024  ->     2
   77 softmax                                           2
Loading weights from backup/darknet53.backup...Done!
layer     filters    size              input                output
    0 conv     32  3 x 3 / 1   224 x 224 x   3   ->   224 x 224 x  32  0.087 BFLOPs
    1 conv     64  3 x 3 / 2   224 x 224 x  32   ->   112 x 112 x  64  0.462 BFLOPs
    2 conv     32  1 x 1 / 1   112 x 112 x  64   ->   112 x 112 x  32  0.051 BFLOPs
    3 conv     64  3 x 3 / 1   112 x 112 x  32   ->   112 x 112 x  64  0.462 BFLOPs
    4 res    1                 112 x 112 x  64   ->   112 x 112 x  64
    5 conv    128  3 x 3 / 2   112 x 112 x  64   ->    56 x  56 x 128  0.462 BFLOPs
    6 conv     64  1 x 1 / 1    56 x  56 x 128   ->    56 x  56 x  64  0.051 BFLOPs
    7 conv    128  3 x 3 / 1    56 x  56 x  64   ->    56 x  56 x 128  0.462 BFLOPs
    8 res    5                  56 x  56 x 128   ->    56 x  56 x 128
    9 conv     64  1 x 1 / 1    56 x  56 x 128   ->    56 x  56 x  64  0.051 BFLOPs
   10 conv    128  3 x 3 / 1    56 x  56 x  64   ->    56 x  56 x 128  0.462 BFLOPs
   11 res    8                  56 x  56 x 128   ->    56 x  56 x 128
   12 conv    256  3 x 3 / 2    56 x  56 x 128   ->    28 x  28 x 256  0.462 BFLOPs
   13 conv    128  1 x 1 / 1    28 x  28 x 256   ->    28 x  28 x 128  0.051 BFLOPs
   14 conv    256  3 x 3 / 1    28 x  28 x 128   ->    28 x  28 x 256  0.462 BFLOPs
   15 res   12                  28 x  28 x 256   ->    28 x  28 x 256
   16 conv    128  1 x 1 / 1    28 x  28 x 256   ->    28 x  28 x 128  0.051 BFLOPs
   17 conv    256  3 x 3 / 1    28 x  28 x 128   ->    28 x  28 x 256  0.462 BFLOPs
   18 res   15                  28 x  28 x 256   ->    28 x  28 x 256
   19 conv    128  1 x 1 / 1    28 x  28 x 256   ->    28 x  28 x 128  0.051 BFLOPs
   20 conv    256  3 x 3 / 1    28 x  28 x 128   ->    28 x  28 x 256  0.462 BFLOPs
   21 res   18                  28 x  28 x 256   ->    28 x  28 x 256
   22 conv    128  1 x 1 / 1    28 x  28 x 256   ->    28 x  28 x 128  0.051 BFLOPs
   23 conv    256  3 x 3 / 1    28 x  28 x 128   ->    28 x  28 x 256  0.462 BFLOPs
   24 res   21                  28 x  28 x 256   ->    28 x  28 x 256
   25 conv    128  1 x 1 / 1    28 x  28 x 256   ->    28 x  28 x 128  0.051 BFLOPs
   26 conv    256  3 x 3 / 1    28 x  28 x 128   ->    28 x  28 x 256  0.462 BFLOPs
   27 res   24                  28 x  28 x 256   ->    28 x  28 x 256
   28 conv    128  1 x 1 / 1    28 x  28 x 256   ->    28 x  28 x 128  0.051 BFLOPs
   29 conv    256  3 x 3 / 1    28 x  28 x 128   ->    28 x  28 x 256  0.462 BFLOPs
   30 res   27                  28 x  28 x 256   ->    28 x  28 x 256
   31 conv    128  1 x 1 / 1    28 x  28 x 256   ->    28 x  28 x 128  0.051 BFLOPs
   32 conv    256  3 x 3 / 1    28 x  28 x 128   ->    28 x  28 x 256  0.462 BFLOPs
   33 res   30                  28 x  28 x 256   ->    28 x  28 x 256
   34 conv    128  1 x 1 / 1    28 x  28 x 256   ->    28 x  28 x 128  0.051 BFLOPs
   35 conv    256  3 x 3 / 1    28 x  28 x 128   ->    28 x  28 x 256  0.462 BFLOPs
   36 res   33                  28 x  28 x 256   ->    28 x  28 x 256
   37 conv    512  3 x 3 / 2    28 x  28 x 256   ->    14 x  14 x 512  0.462 BFLOPs
   38 conv    256  1 x 1 / 1    14 x  14 x 512   ->    14 x  14 x 256  0.051 BFLOPs
   39 conv    512  3 x 3 / 1    14 x  14 x 256   ->    14 x  14 x 512  0.462 BFLOPs
   40 res   37                  14 x  14 x 512   ->    14 x  14 x 512
   41 conv    256  1 x 1 / 1    14 x  14 x 512   ->    14 x  14 x 256  0.051 BFLOPs
   42 conv    512  3 x 3 / 1    14 x  14 x 256   ->    14 x  14 x 512  0.462 BFLOPs
   43 res   40                  14 x  14 x 512   ->    14 x  14 x 512
   44 conv    256  1 x 1 / 1    14 x  14 x 512   ->    14 x  14 x 256  0.051 BFLOPs
   45 conv    512  3 x 3 / 1    14 x  14 x 256   ->    14 x  14 x 512  0.462 BFLOPs
   46 res   43                  14 x  14 x 512   ->    14 x  14 x 512
   47 conv    256  1 x 1 / 1    14 x  14 x 512   ->    14 x  14 x 256  0.051 BFLOPs
   48 conv    512  3 x 3 / 1    14 x  14 x 256   ->    14 x  14 x 512  0.462 BFLOPs
   49 res   46                  14 x  14 x 512   ->    14 x  14 x 512
   50 conv    256  1 x 1 / 1    14 x  14 x 512   ->    14 x  14 x 256  0.051 BFLOPs
   51 conv    512  3 x 3 / 1    14 x  14 x 256   ->    14 x  14 x 512  0.462 BFLOPs
   52 res   49                  14 x  14 x 512   ->    14 x  14 x 512
   53 conv    256  1 x 1 / 1    14 x  14 x 512   ->    14 x  14 x 256  0.051 BFLOPs
   54 conv    512  3 x 3 / 1    14 x  14 x 256   ->    14 x  14 x 512  0.462 BFLOPs
   55 res   52                  14 x  14 x 512   ->    14 x  14 x 512
   56 conv    256  1 x 1 / 1    14 x  14 x 512   ->    14 x  14 x 256  0.051 BFLOPs
   57 conv    512  3 x 3 / 1    14 x  14 x 256   ->    14 x  14 x 512  0.462 BFLOPs
   58 res   55                  14 x  14 x 512   ->    14 x  14 x 512
   59 conv    256  1 x 1 / 1    14 x  14 x 512   ->    14 x  14 x 256  0.051 BFLOPs
   60 conv    512  3 x 3 / 1    14 x  14 x 256   ->    14 x  14 x 512  0.462 BFLOPs
   61 res   58                  14 x  14 x 512   ->    14 x  14 x 512
   62 conv   1024  3 x 3 / 2    14 x  14 x 512   ->     7 x   7 x1024  0.462 BFLOPs
   63 conv    512  1 x 1 / 1     7 x   7 x1024   ->     7 x   7 x 512  0.051 BFLOPs
   64 conv   1024  3 x 3 / 1     7 x   7 x 512   ->     7 x   7 x1024  0.462 BFLOPs
   65 res   62                   7 x   7 x1024   ->     7 x   7 x1024
   66 conv    512  1 x 1 / 1     7 x   7 x1024   ->     7 x   7 x 512  0.051 BFLOPs
   67 conv   1024  3 x 3 / 1     7 x   7 x 512   ->     7 x   7 x1024  0.462 BFLOPs
   68 res   65                   7 x   7 x1024   ->     7 x   7 x1024
   69 conv    512  1 x 1 / 1     7 x   7 x1024   ->     7 x   7 x 512  0.051 BFLOPs
   70 conv   1024  3 x 3 / 1     7 x   7 x 512   ->     7 x   7 x1024  0.462 BFLOPs
   71 res   68                   7 x   7 x1024   ->     7 x   7 x1024
   72 conv    512  1 x 1 / 1     7 x   7 x1024   ->     7 x   7 x 512  0.051 BFLOPs
   73 conv   1024  3 x 3 / 1     7 x   7 x 512   ->     7 x   7 x1024  0.462 BFLOPs
   74 res   71                   7 x   7 x1024   ->     7 x   7 x1024
   75 avg                        7 x   7 x1024   ->  1024
   76 connected                            1024  ->     2
   77 softmax                                           2
Loading weights from backup/darknet53.backup...Done!
Learning Rate: 0.0024, Momentum: 0.9, Decay: 0.0005
…
